…
3 - mmcv - INFO - load model from: open-mmlab://resnet18_v1c2022-02-24 16:27:40,555 - mmcv - INFO - load checkpoint from openmmlab path: open-mmlab://resnet18_v1c2022-02-24 16:27:40,631 - mmcv - WARNING - The model and loaded state dict do not match exactlyunexpected key in source state_dict: fc.weight, fc.bias2022-02-24 16:27:40,871 - mmseg - INFO - initialize FCNHead with init_cfg {'type': 'Normal', 'std': 0.01, 'override': {'name': 'conv_seg'}}2022-02-24 16:27:40,905 - mmseg - INFO - EncoderDecoder(  (backbone): DABNet(    (backbone): ResNetV1c(      (stem): Sequential(        (0): Conv2d(3, 32, kernel_size=(3, 3), stride=(2, 2), padding=(1, 1), bias=False)        (1): SyncBatchNorm(32, eps=1e-05, momentum=0.1, affine=True, track_running_stats=True)        (2): ReLU(inplace=True)        (3): Conv2d(32, 32, kernel_size=(3, 3), stride=(1, 1), padding=(1, 1), bias=False)        (4): SyncBatchNorm(32, eps=1e-05, momentum=0.1, affine=True, track_running_stats=True)        (5): ReLU(inplace=True)        (6): Conv2d(32, 64, kernel_size=(3, 3), stride=(1, 1), padding=(1, 1), bias=False)        (7): SyncBatchNorm(64, eps=1e-05, momentum=0.1, affine=True, track_running_stats=True)        (8): ReLU(inplace=True)      )      (maxpool): MaxPool2d(kernel_size=3, stride=2, padding=1, dilation=1, ceil_mode=False)      (layer1): ResLayer(        (0): BasicBlock(          (conv1): Conv2d(64, 64, kernel_size=(3, 3), stride=(1, 1), padding=(1, 1), bias=False)          (bn1): SyncBatchNorm(64, eps=1e-05, momentum=0.1, affine=True, track_running_stats=True)          (conv2): Conv2d(64, 64, kernel_size=(3, 3), stride=(1, 1), padding=(1, 1), bias=False)          (bn2): SyncBatchNorm(64, eps=1e-05, momentum=0.1, affine=True, track_running_stats=True)          (relu): ReLU(inplace=True)        )        (1): BasicBlock(          (conv1): Conv2d(64, 64, kernel_size=(3, 3), stride=(1, 1), padding=(1, 1), bias=False)          (bn1): SyncBatchNorm(64, eps=1e-05, momentum=0.1, affine=True, track_running_stats=True)          (conv2): Conv2d(64, 64, kernel_size=(3, 3), stride=(1, 1), padding=(1, 1), bias=False)          (bn2): SyncBatchNorm(64, eps=1e-05, momentum=0.1, affine=True, track_running_stats=True)          (relu): ReLU(inplace=True)        )      )      (layer2): ResLayer(        (0): BasicBlock(          (conv1): Conv2d(64, 128, kernel_size=(3, 3), stride=(2, 2), padding=(1, 1), bias=False)          (bn1): SyncBatchNorm(128, eps=1e-05, momentum=0.1, affine=True, track_running_stats=True)          (conv2): Conv2d(128, 128, kernel_size=(3, 3), stride=(1, 1), padding=(1, 1), bias=False)          (bn2): SyncBatchNorm(128, eps=1e-05, momentum=0.1, affine=True, track_running_stats=True)          (relu): ReLU(inplace=True)          (downsample): Sequential(            (0): Conv2d(64, 128, kernel_size=(1, 1), stride=(2, 2), bias=False)            (1): SyncBatchNorm(128, eps=1e-05, momentum=0.1, affine=True, track_running_stats=True)          )        )        (1): BasicBlock(          (conv1): Conv2d(128, 128, kernel_size=(3, 3), stride=(1, 1), padding=(1, 1), bias=False)          (bn1): SyncBatchNorm(128, eps=1e-05, momentum=0.1, affine=True, track_running_stats=True)          (conv2): Conv2d(128, 128, kernel_size=(3, 3), stride=(1, 1), padding=(1, 1), bias=False)          (bn2): SyncBatchNorm(128, eps=1e-05, momentum=0.1, affine=True, track_running_stats=True)          (relu): ReLU(inplace=True)        )      )      (layer3): ResLayer(        (0): BasicBlock(          (conv1): Conv2d(128, 256, kernel_size=(3, 3), stride=(2, 2), padding=(1, 1), bias=False)          (bn1): SyncBatchNorm(256, eps=1e-05, momentum=0.1, affine=True, track_running_stats=True)          (conv2): Conv2d(256, 256, kernel_size=(3, 3), stride=(1, 1), padding=(1, 1), bias=False)          (bn2): SyncBatchNorm(256, eps=1e-05, momentum=0.1, affine=True, track_running_stats=True)          (relu): ReLU(inplace=True)          (downsample): Sequential(            (0): Conv2d(128, 256, kernel_size=(1, 1), stride=(2, 2), bias=False)            (1): SyncBatchNorm(256, eps=1e-05, momentum=0.1, affine=True, track_running_stats=True)          )        )        (1): BasicBlock(          (conv1): Conv2d(256, 256, kernel_size=(3, 3), stride=(1, 1), padding=(1, 1), bias=False)          (bn1): SyncBatchNorm(256, eps=1e-05, momentum=0.1, affine=True, track_running_stats=True)          (conv2): Conv2d(256, 256, kernel_size=(3, 3), stride=(1, 1), padding=(1, 1), bias=False)          (bn2): SyncBatchNorm(256, eps=1e-05, momentum=0.1, affine=True, track_running_stats=True)          (relu): ReLU(inplace=True)        )      )      (layer4): ResLayer(        (0): BasicBlock(          (conv1): Conv2d(256, 512, kernel_size=(3, 3), stride=(2, 2), padding=(1, 1), bias=False)          (bn1): SyncBatchNorm(512, eps=1e-05, momentum=0.1, affine=True, track_running_stats=True)          (conv2): Conv2d(512, 512, kernel_size=(3, 3), stride=(1, 1), padding=(1, 1), bias=False)          (bn2): SyncBatchNorm(512, eps=1e-05, momentum=0.1, affine=True, track_running_stats=True)          (relu): ReLU(inplace=True)          (downsample): Sequential(            (0): Conv2d(256, 512, kernel_size=(1, 1), stride=(2, 2), bias=False)            (1): SyncBatchNorm(512, eps=1e-05, momentum=0.1, affine=True, track_running_stats=True)          )        )        (1): BasicBlock(          (conv1): Conv2d(512, 512, kernel_size=(3, 3), stride=(1, 1), padding=(1, 1), bias=False)          (bn1): SyncBatchNorm(512, eps=1e-05, momentum=0.1, affine=True, track_running_stats=True)          (conv2): Conv2d(512, 512, kernel_size=(3, 3), stride=(1, 1), padding=(1, 1), bias=False)          (bn2): SyncBatchNorm(512, eps=1e-05, momentum=0.1, affine=True, track_running_stats=True)          (relu): ReLU(inplace=True)        )      )    )    init_cfg={'type': 'Pretrained', 'checkpoint': 'open-mmlab://resnet18_v1c'}    (ffm): FeatureFusionModule(      (conv1): ConvModule(        (conv): Conv2d(256, 256, kernel_size=(1, 1), stride=(1, 1), bias=False)        (bn): SyncBatchNorm(256, eps=1e-05, momentum=0.1, affine=True, track_running_stats=True)        (activate): ReLU(inplace=True)      )      (gap): AdaptiveAvgPool2d(output_size=(1, 1))      (conv_atten): Sequential(        (0): ConvModule(          (conv): Conv2d(256, 256, kernel_size=(1, 1), stride=(1, 1), bias=False)          (bn): SyncBatchNorm(256, eps=1e-05, momentum=0.1, affine=True, track_running_stats=True)          (activate): ReLU(inplace=True)        )        (1): Sigmoid()      )    )    (arm16): AttentionRefinementModule(      (conv_layer): ConvModule(        (conv): Conv2d(256, 128, kernel_size=(3, 3), stride=(1, 1), padding=(1, 1), bias=False)        (bn): SyncBatchNorm(128, eps=1e-05, momentum=0.1, affine=True, track_running_stats=True)        (activate): ReLU(inplace=True)      )      (atten_conv_layer): Sequential(        (0): AdaptiveAvgPool2d(output_size=(1, 1))        (1): ConvModule(          (conv): Conv2d(128, 128, kernel_size=(1, 1), stride=(1, 1), bias=False)          (bn): SyncBatchNorm(128, eps=1e-05, momentum=0.1, affine=True, track_running_stats=True)        )        (2): Sigmoid()      )    )    (arm32): AttentionRefinementModule(      (conv_layer): ConvModule(        (conv): Conv2d(512, 128, kernel_size=(3, 3), stride=(1, 1), padding=(1, 1), bias=False)        (bn): SyncBatchNorm(128, eps=1e-05, momentum=0.1, affine=True, track_running_stats=True)        (activate): ReLU(inplace=True)      )      (atten_conv_layer): Sequential(        (0): AdaptiveAvgPool2d(output_size=(1, 1))        (1): ConvModule(          (conv): Conv2d(128, 128, kernel_size=(1, 1), stride=(1, 1), bias=False)          (bn): SyncBatchNorm(128, eps=1e-05, momentum=0.1, affine=True, track_running_stats=True)        )        (2): Sigmoid()      )    )    (conv_head32): ConvModule(      (conv): Conv2d(128, 128, kernel_size=(3, 3), stride=(1, 1), padding=(1, 1), bias=False)      (bn): SyncBatchNorm(128, eps=1e-05, momentum=0.1, affine=True, track_running_stats=True)      (activate): ReLU(inplace=True)    )    (conv_head16): ConvModule(      (conv): Conv2d(128, 128, kernel_size=(3, 3), stride=(1, 1), padding=(1, 1), bias=False)      (bn): SyncBatchNorm(128, eps=1e-05, momentum=0.1, affine=True, track_running_stats=True)      (activate): ReLU(inplace=True)    )    (sp_0): ConvModule(      (conv): Conv2d(67, 64, kernel_size=(3, 3), stride=(2, 2), padding=(1, 1), bias=False)      (bn): SyncBatchNorm(64, eps=1e-05, momentum=0.1, affine=True, track_running_stats=True)      (activate): ReLU(inplace=True)    )    (sp_1): ConvModule(      (conv): Conv2d(64, 64, kernel_size=(3, 3), stride=(2, 2), padding=(1, 1), bias=False)      (bn): SyncBatchNorm(64, eps=1e-05, momentum=0.1, affine=True, track_running_stats=True)      (activate): ReLU(inplace=True)    )    (sp_2): ConvModule(      (conv): Conv2d(64, 128, kernel_size=(1, 1), stride=(1, 1), bias=False)      (bn): SyncBatchNorm(128, eps=1e-05, momentum=0.1, affine=True, track_running_stats=True)      (activate): ReLU(inplace=True)    )    (SIM_0): SIM(      (h2l_pool): AvgPool2d(kernel_size=(2, 2), stride=2, padding=0)      (h2l_0): Conv2d(256, 32, kernel_size=(3, 3), stride=(1, 1), padding=(1, 1))      (h2h_0): Conv2d(64, 32, kernel_size=(3, 3), stride=(1, 1), padding=(1, 1))      (bnl_0): SyncBatchNorm(32, eps=1e-05, momentum=0.1, affine=True, track_running_stats=True)      (bnh_0): SyncBatchNorm(32, eps=1e-05, momentum=0.1, affine=True, track_running_stats=True)      (avg): AdaptiveAvgPool2d(output_size=(1, 1))      (l2l_p1): Conv2d(32, 32, kernel_size=(1, 1), stride=(1, 1))      (l2l_p2): Conv2d(64, 32, kernel_size=(1, 1), stride=(1, 1))      (l2l_bn): SyncBatchNorm(32, eps=1e-05, momentum=0.1, affine=True, track_running_stats=True)      (h2h_1): Conv2d(32, 32, kernel_size=(3, 3), stride=(1, 1), padding=(1, 1))      (h2l_1): Conv2d(32, 32, kernel_size=(3, 3), stride=(1, 1), padding=(1, 1))      (l2h_1): Conv2d(32, 32, kernel_size=(3, 3), stride=(1, 1), padding=(1, 1))      (l2l_1): Conv2d(32, 32, kernel_size=(3, 3), stride=(1, 1), padding=(1, 1))      (bnl_1): SyncBatchNorm(32, eps=1e-05, momentum=0.1, affine=True, track_running_stats=True)      (bnh_1): SyncBatchNorm(32, eps=1e-05, momentum=0.1, affine=True, track_running_stats=True)      (h2h_2): Conv2d(32, 64, kernel_size=(3, 3), stride=(1, 1), padding=(1, 1))      (l2h_2): Conv2d(32, 64, kernel_size=(3, 3), stride=(1, 1), padding=(1, 1))      (bnh_2): SyncBatchNorm(64, eps=1e-05, momentum=0.1, affine=True, track_running_stats=True)      (relu): ReLU(inplace=True)    )    (SIM_1): SIM(      (h2l_pool): AvgPool2d(kernel_size=(2, 2), stride=2, padding=0)      (h2l_0): Conv2d(512, 64, kernel_size=(3, 3), stride=(1, 1), padding=(1, 1))      (h2h_0): Conv2d(128, 64, kernel_size=(3, 3), stride=(1, 1), padding=(1, 1))      (bnl_0): SyncBatchNorm(64, eps=1e-05, momentum=0.1, affine=True, track_running_stats=True)      (bnh_0): SyncBatchNorm(64, eps=1e-05, momentum=0.1, affine=True, track_running_stats=True)      (avg): AdaptiveAvgPool2d(output_size=(1, 1))      (l2l_p1): Conv2d(64, 64, kernel_size=(1, 1), stride=(1, 1))      (l2l_p2): Conv2d(128, 64, kernel_size=(1, 1), stride=(1, 1))      (l2l_bn): SyncBatchNorm(64, eps=1e-05, momentum=0.1, affine=True, track_running_stats=True)      (h2h_1): Conv2d(64, 64, kernel_size=(3, 3), stride=(1, 1), padding=(1, 1))      (h2l_1): Conv2d(64, 64, kernel_size=(3, 3), stride=(1, 1), padding=(1, 1))      (l2h_1): Conv2d(64, 64, kernel_size=(3, 3), stride=(1, 1), padding=(1, 1))      (l2l_1): Conv2d(64, 64, kernel_size=(3, 3), stride=(1, 1), padding=(1, 1))      (bnl_1): SyncBatchNorm(64, eps=1e-05, momentum=0.1, affine=True, track_running_stats=True)      (bnh_1): SyncBatchNorm(64, eps=1e-05, momentum=0.1, affine=True, track_running_stats=True)      (h2h_2): Conv2d(64, 128, kernel_size=(3, 3), stride=(1, 1), padding=(1, 1))      (l2h_2): Conv2d(64, 128, kernel_size=(3, 3), stride=(1, 1), padding=(1, 1))      (bnh_2): SyncBatchNorm(128, eps=1e-05, momentum=0.1, affine=True, track_running_stats=True)      (relu): ReLU(inplace=True)    )    (SIM_2): SIM(      (h2l_pool): AvgPool2d(kernel_size=(2, 2), stride=2, padding=0)      (h2l_0): Conv2d(1024, 64, kernel_size=(3, 3), stride=(1, 1), padding=(1, 1))      (h2h_0): Conv2d(256, 64, kernel_size=(3, 3), stride=(1, 1), padding=(1, 1))      (bnl_0): SyncBatchNorm(64, eps=1e-05, momentum=0.1, affine=True, track_running_stats=True)      (bnh_0): SyncBatchNorm(64, eps=1e-05, momentum=0.1, affine=True, track_running_stats=True)      (avg): AdaptiveAvgPool2d(output_size=(1, 1))      (l2l_p1): Conv2d(64, 64, kernel_size=(1, 1), stride=(1, 1))      (l2l_p2): Conv2d(256, 64, kernel_size=(1, 1), stride=(1, 1))      (l2l_bn): SyncBatchNorm(64, eps=1e-05, momentum=0.1, affine=True, track_running_stats=True)      (h2h_1): Conv2d(64, 64, kernel_size=(3, 3), stride=(1, 1), padding=(1, 1))      (h2l_1): Conv2d(64, 64, kernel_size=(3, 3), stride=(1, 1), padding=(1, 1))      (l2h_1): Conv2d(64, 64, kernel_size=(3, 3), stride=(1, 1), padding=(1, 1))      (l2l_1): Conv2d(64, 64, kernel_size=(3, 3), stride=(1, 1), padding=(1, 1))      (bnl_1): SyncBatchNorm(64, eps=1e-05, momentum=0.1, affine=True, track_running_stats=True)      (bnh_1): SyncBatchNorm(64, eps=1e-05, momentum=0.1, affine=True, track_running_stats=True)      (h2h_2): Conv2d(64, 256, kernel_size=(3, 3), stride=(1, 1), padding=(1, 1))      (l2h_2): Conv2d(64, 256, kernel_size=(3, 3), stride=(1, 1), padding=(1, 1))      (bnh_2): SyncBatchNorm(256, eps=1e-05, momentum=0.1, affine=True, track_running_stats=True)      (relu): ReLU(inplace=True)    )    (SIM_3): SIM(      (h2l_pool): AvgPool2d(kernel_size=(2, 2), stride=2, padding=0)      (h2l_0): Conv2d(2048, 64, kernel_size=(3, 3), stride=(1, 1), padding=(1, 1))      (h2h_0): Conv2d(512, 64, kernel_size=(3, 3), stride=(1, 1), padding=(1, 1))      (bnl_0): SyncBatchNorm(64, eps=1e-05, momentum=0.1, affine=True, track_running_stats=True)      (bnh_0): SyncBatchNorm(64, eps=1e-05, momentum=0.1, affine=True, track_running_stats=True)      (avg): AdaptiveAvgPool2d(output_size=(1, 1))      (l2l_p1): Conv2d(64, 64, kernel_size=(1, 1), stride=(1, 1))      (l2l_p2): Conv2d(512, 64, kernel_size=(1, 1), stride=(1, 1))      (l2l_bn): SyncBatchNorm(64, eps=1e-05, momentum=0.1, affine=True, track_running_stats=True)      (h2h_1): Conv2d(64, 64, kernel_size=(3, 3), stride=(1, 1), padding=(1, 1))      (h2l_1): Conv2d(64, 64, kernel_size=(3, 3), stride=(1, 1), padding=(1, 1))      (l2h_1): Conv2d(64, 64, kernel_size=(3, 3), stride=(1, 1), padding=(1, 1))      (l2l_1): Conv2d(64, 64, kernel_size=(3, 3), stride=(1, 1), padding=(1, 1))      (bnl_1): SyncBatchNorm(64, eps=1e-05, momentum=0.1, affine=True, track_running_stats=True)      (bnh_1): SyncBatchNorm(64, eps=1e-05, momentum=0.1, affine=True, track_running_stats=True)      (h2h_2): Conv2d(64, 512, kernel_size=(3, 3), stride=(1, 1), padding=(1, 1))      (l2h_2): Conv2d(64, 512, kernel_size=(3, 3), stride=(1, 1), padding=(1, 1))      (bnh_2): SyncBatchNorm(512, eps=1e-05, momentum=0.1, affine=True, track_running_stats=True)      (relu): ReLU(inplace=True)    )    (cp_1): ConvModule(      (conv): Conv2d(64, 64, kernel_size=(3, 3), stride=(1, 1), padding=(1, 1), bias=False)      (bn): SyncBatchNorm(64, eps=1e-05, momentum=0.1, affine=True, track_running_stats=True)      (activate): ReLU(inplace=True)    )    (cp_2): ConvModule(      (conv): Conv2d(128, 64, kernel_size=(3, 3), stride=(1, 1), padding=(1, 1), bias=False)      (bn): SyncBatchNorm(64, eps=1e-05, momentum=0.1, affine=True, track_running_stats=True)      (activate): ReLU(inplace=True)    )    (sample1): InputProjectionA(      (pool): ModuleList(        (0): AvgPool2d(kernel_size=2, stride=2, padding=0)      )    )  )  (decode_head): FCNHead(    input_transform=None, ignore_index=255, align_corners=False    (loss_decode): CrossEntropyLoss()    (conv_seg): Conv2d(256, 19, kernel_size=(1, 1), stride=(1, 1))    (dropout): Dropout2d(p=0.1, inplace=False)    (convs): Sequential(      (0): ConvModule(        (conv): Conv2d(256, 256, kernel_size=(3, 3), stride=(1, 1), padding=(1, 1), bias=False)        (bn): SyncBatchNorm(256, eps=1e-05, momentum=0.1, affine=True, track_running_stats=True)        (activate): ReLU(inplace=True)      )    )  )  init_cfg={'type': 'Normal', 'std': 0.01, 'override': {'name': 'conv_seg'}}  (auxiliary_head): ModuleList(    (0): FCNHead(      input_transform=None, ignore_index=255, align_corners=False      (loss_decode): CrossEntropyLoss()      (conv_seg): Conv2d(64, 19, kernel_size=(1, 1), stride=(1, 1))      (dropout): Dropout2d(p=0.1, inplace=False)      (convs): Sequential(        (0): ConvModule(          (conv): Conv2d(128, 64, kernel_size=(3, 3), stride=(1, 1), padding=(1, 1), bias=False)          (bn): SyncBatchNorm(64, eps=1e-05, momentum=0.1, affine=True, track_running_stats=True)          (activate): ReLU(inplace=True)        )      )    )    init_cfg={'type': 'Normal', 'std': 0.01, 'override': {'name': 'conv_seg'}}    (1): FCNHead(      input_transform=None, ignore_index=255, align_corners=False      (loss_decode): CrossEntropyLoss()      (conv_seg): Conv2d(64, 19, kernel_size=(1, 1), stride=(1, 1))      (dropout): Dropout2d(p=0.1, inplace=False)      (convs): Sequential(        (0): ConvModule(          (conv): Conv2d(128, 64, kernel_size=(3, 3), stride=(1, 1), padding=(1, 1), bias=False)          (bn): SyncBatchNorm(64, eps=1e-05, momentum=0.1, affine=True, track_running_stats=True)          (activate): ReLU(inplace=True)        )      )    )    init_cfg={'type': 'Normal', 'std': 0.01, 'override': {'name': 'conv_seg'}}  ))2022-02-24 16:27:41,246 - mmseg - INFO - Loaded 2975 images2022-02-24 16:27:42,
…
