…
The value is the same before and after calling `init_weights` of EncoderDecoder  

auxiliary_head.1.convs.0.conv.weight - torch.Size([64, 128, 3, 3]): 
The value is the same before and after calling `init_weights` of EncoderDecoder  

auxiliary_head.1.convs.0.bn.weight - torch.Size([64]): 
The value is the same before and after calling `init_weights` of EncoderDecoder  

auxiliary_head.1.convs.0.bn.bias - torch.Size([64]): 
The value is the same before and after calling `init_weights` of EncoderDecoder  
2021-12-11 10:28:37,330 - mmseg - INFO - EncoderDecoder(
  (backbone): BiSeNetV1_Ef(
    (backbone): EfficientNetFeatures(
      (conv_stem): Conv2d(3, 32, kernel_size=(3, 3), stride=(2, 2), padding=(1, 1), bias=False)
      (bn1): SyncBatchNorm(32, eps=1e-05, momentum=0.1, affine=True, track_running_stats=True)
      (act1): SwishMe()
      (blocks): Sequential(
        (0): Sequential(
          (0): DepthwiseSeparableConv(
            (conv_dw): Conv2d(32, 32, kernel_size=(3, 3), stride=(1, 1), padding=(1, 1), groups=32, bias=False)
            (bn1): SyncBatchNorm(32, eps=1e-05, momentum=0.1, affine=True, track_running_stats=True)
            (act1): SwishMe()
            (se): SqueezeExcite(
              (conv_reduce): Conv2d(32, 8, kernel_size=(1, 1), stride=(1, 1))
              (act1): SwishMe()
              (conv_expand): Conv2d(8, 32, kernel_size=(1, 1), stride=(1, 1))
              (gate): Sigmoid()
            )
            (conv_pw): Conv2d(32, 16, kernel_size=(1, 1), stride=(1, 1), bias=False)
            (bn2): SyncBatchNorm(16, eps=1e-05, momentum=0.1, affine=True, track_running_stats=True)
            (act2): Identity()
          )
          (1): DepthwiseSeparableConv(
            (conv_dw): Conv2d(16, 16, kernel_size=(3, 3), stride=(1, 1), padding=(1, 1), groups=16, bias=False)
            (bn1): SyncBatchNorm(16, eps=1e-05, momentum=0.1, affine=True, track_running_stats=True)
            (act1): SwishMe()
            (se): SqueezeExcite(
              (conv_reduce): Conv2d(16, 4, kernel_size=(1, 1), stride=(1, 1))
              (act1): SwishMe()
              (conv_expand): Conv2d(4, 16, kernel_size=(1, 1), stride=(1, 1))
              (gate): Sigmoid()
            )
            (conv_pw): Conv2d(16, 16, kernel_size=(1, 1), stride=(1, 1), bias=False)
            (bn2): SyncBatchNorm(16, eps=1e-05, momentum=0.1, affine=True, track_running_stats=True)
            (act2): Identity()
          )
        )
        (1): Sequential(
          (0): InvertedResidual(
            (conv_pw): Conv2d(16, 96, kernel_size=(1, 1), stride=(1, 1), bias=False)
            (bn1): SyncBatchNorm(96, eps=1e-05, momentum=0.1, affine=True, track_running_stats=True)
            (act1): SwishMe()
            (conv_dw): Conv2d(96, 96, kernel_size=(3, 3), stride=(2, 2), padding=(1, 1), groups=96, bias=False)
            (bn2): SyncBatchNorm(96, eps=1e-05, momentum=0.1, affine=True, track_running_stats=True)
            (act2): SwishMe()
            (se): SqueezeExcite(
              (conv_reduce): Conv2d(96, 4, kernel_size=(1, 1), stride=(1, 1))
              (act1): SwishMe()
              (conv_expand): Conv2d(4, 96, kernel_size=(1, 1), stride=(1, 1))
              (gate): Sigmoid()
            )
            (conv_pwl): Conv2d(96, 24, kernel_size=(1, 1), stride=(1, 1), bias=False)
            (bn3): SyncBatchNorm(24, eps=1e-05, momentum=0.1, affine=True, track_running_stats=True)
          )
          (1): InvertedResidual(
            (conv_pw): Conv2d(24, 144, kernel_size=(1, 1), stride=(1, 1), bias=False)
            (bn1): SyncBatchNorm(144, eps=1e-05, momentum=0.1, affine=True, track_running_stats=True)
            (act1): SwishMe()
            (conv_dw): Conv2d(144, 144, kernel_size=(3, 3), stride=(1, 1), padding=(1, 1), groups=144, bias=False)
            (bn2): SyncBatchNorm(144, eps=1e-05, momentum=0.1, affine=True, track_running_stats=True)
            (act2): SwishMe()
            (se): SqueezeExcite(
              (conv_reduce): Conv2d(144, 6, kernel_size=(1, 1), stride=(1, 1))
              (act1): SwishMe()
              (conv_expand): Conv2d(6, 144, kernel_size=(1, 1), stride=(1, 1))
              (gate): Sigmoid()
            )
            (conv_pwl): Conv2d(144, 24, kernel_size=(1, 1), stride=(1, 1), bias=False)
            (bn3): SyncBatchNorm(24, eps=1e-05, momentum=0.1, affine=True, track_running_stats=True)
          )
          (2): InvertedResidual(
            (conv_pw): Conv2d(24, 144, kernel_size=(1, 1), stride=(1, 1), bias=False)
            (bn1): SyncBatchNorm(144, eps=1e-05, momentum=0.1, affine=True, track_running_stats=True)
            (act1): SwishMe()
            (conv_dw): Conv2d(144, 144, kernel_size=(3, 3), stride=(1, 1), padding=(1, 1), groups=144, bias=False)
            (bn2): SyncBatchNorm(144, eps=1e-05, momentum=0.1, affine=True, track_running_stats=True)
            (act2): SwishMe()
            (se): SqueezeExcite(
              (conv_reduce): Conv2d(144, 6, kernel_size=(1, 1), stride=(1, 1))
              (act1): SwishMe()
              (conv_expand): Conv2d(6, 144, kernel_size=(1, 1), stride=(1, 1))
              (gate): Sigmoid()
            )
            (conv_pwl): Conv2d(144, 24, kernel_size=(1, 1), stride=(1, 1), bias=False)
            (bn3): SyncBatchNorm(24, eps=1e-05, momentum=0.1, affine=True, track_running_stats=True)
          )
        )
        (2): Sequential(
          (0): InvertedResidual(
            (conv_pw): Conv2d(24, 144, kernel_size=(1, 1), stride=(1, 1), bias=False)
            (bn1): SyncBatchNorm(144, eps=1e-05, momentum=0.1, affine=True, track_running_stats=True)
            (act1): SwishMe()
            (conv_dw): Conv2d(144, 144, kernel_size=(5, 5), stride=(2, 2), padding=(2, 2), groups=144, bias=False)
            (bn2): SyncBatchNorm(144, eps=1e-05, momentum=0.1, affine=True, track_running_stats=True)
            (act2): SwishMe()
            (se): SqueezeExcite(
              (conv_reduce): Conv2d(144, 6, kernel_size=(1, 1), stride=(1, 1))
              (act1): SwishMe()
              (conv_expand): Conv2d(6, 144, kernel_size=(1, 1), stride=(1, 1))
              (gate): Sigmoid()
            )
            (conv_pwl): Conv2d(144, 40, kernel_size=(1, 1), stride=(1, 1), bias=False)
            (bn3): SyncBatchNorm(40, eps=1e-05, momentum=0.1, affine=True, track_running_stats=True)
          )
          (1): InvertedResidual(
            (conv_pw): Conv2d(40, 240, kernel_size=(1, 1), stride=(1, 1), bias=False)
            (bn1): SyncBatchNorm(240, eps=1e-05, momentum=0.1, affine=True, track_running_stats=True)
            (act1): SwishMe()
            (conv_dw): Conv2d(240, 240, kernel_size=(5, 5), stride=(1, 1), padding=(2, 2), groups=240, bias=False)
            (bn2): SyncBatchNorm(240, eps=1e-05, momentum=0.1, affine=True, track_running_stats=True)
            (act2): SwishMe()
            (se): SqueezeExcite(
              (conv_reduce): Conv2d(240, 10, kernel_size=(1, 1), stride=(1, 1))
              (act1): SwishMe()
              (conv_expand): Conv2d(10, 240, kernel_size=(1, 1), stride=(1, 1))
              (gate): Sigmoid()
            )
            (conv_pwl): Conv2d(240, 40, kernel_size=(1, 1), stride=(1, 1), bias=False)
            (bn3): SyncBatchNorm(40, eps=1e-05, momentum=0.1, affine=True, track_running_stats=True)
          )
          (2): InvertedResidual(
            (conv_pw): Conv2d(40, 240, kernel_size=(1, 1), stride=(1, 1), bias=False)
            (bn1): SyncBatchNorm(240, eps=1e-05, momentum=0.1, affine=True, track_running_stats=True)
            (act1): SwishMe()
            (conv_dw): Conv2d(240, 240, kernel_size=(5, 5), stride=(1, 1), padding=(2, 2), groups=240, bias=False)
            (bn2): SyncBatchNorm(240, eps=1e-05, momentum=0.1, affine=True, track_running_stats=True)
            (act2): SwishMe()
            (se): SqueezeExcite(
              (conv_reduce): Conv2d(240, 10, kernel_size=(1, 1), stride=(1, 1))
              (act1): SwishMe()
              (conv_expand): Conv2d(10, 240, kernel_size=(1, 1), stride=(1, 1))
              (gate): Sigmoid()
            )
            (conv_pwl): Conv2d(240, 40, kernel_size=(1, 1), stride=(1, 1), bias=False)
            (bn3): SyncBatchNorm(40, eps=1e-05, momentum=0.1, affine=True, track_running_stats=True)
          )
        )
        (3): Sequential(
          (0): InvertedResidual(
            (conv_pw): Conv2d(40, 240, kernel_size=(1, 1), stride=(1, 1), bias=False)
            (bn1): SyncBatchNorm(240, eps=1e-05, momentum=0.1, affine=True, track_running_stats=True)
            (act1): SwishMe()
            (conv_dw): Conv2d(240, 240, kernel_size=(3, 3), stride=(2, 2), padding=(1, 1), groups=240, bias=False)
            (bn2): SyncBatchNorm(240, eps=1e-05, momentum=0.1, affine=True, track_running_stats=True)
            (act2): SwishMe()
            (se): SqueezeExcite(
              (conv_reduce): Conv2d(240, 10, kernel_size=(1, 1), stride=(1, 1))
              (act1): SwishMe()
              (conv_expand): Conv2d(10, 240, kernel_size=(1, 1), stride=(1, 1))
              (gate): Sigmoid()
            )
            (conv_pwl): Conv2d(240, 80, kernel_size=(1, 1), stride=(1, 1), bias=False)
            (bn3): SyncBatchNorm(80, eps=1e-05, momentum=0.1, affine=True, track_running_stats=True)
          )
          (1): InvertedResidual(
            (conv_pw): Conv2d(80, 480, kernel_size=(1, 1), stride=(1, 1), bias=False)
            (bn1): SyncBatchNorm(480, eps=1e-05, momentum=0.1, affine=True, track_running_stats=True)
            (act1): SwishMe()
            (conv_dw): Conv2d(480, 480, kernel_size=(3, 3), stride=(1, 1), padding=(1, 1), groups=480, bias=False)
            (bn2): SyncBatchNorm(480, eps=1e-05, momentum=0.1, affine=True, track_running_stats=True)
            (act2): SwishMe()
            (se): SqueezeExcite(
              (conv_reduce): Conv2d(480, 20, kernel_size=(1, 1), stride=(1, 1))
              (act1): SwishMe()
              (conv_expand): Conv2d(20, 480, kernel_size=(1, 1), stride=(1, 1))
              (gate): Sigmoid()
            )
            (conv_pwl): Conv2d(480, 80, kernel_size=(1, 1), stride=(1, 1), bias=False)
            (bn3): SyncBatchNorm(80, eps=1e-05, momentum=0.1, affine=True, track_running_stats=True)
          )
          (2): InvertedResidual(
            (conv_pw): Conv2d(80, 480, kernel_size=(1, 1), stride=(1, 1), bias=False)
            (bn1): SyncBatchNorm(480, eps=1e-05, momentum=0.1, affine=True, track_running_stats=True)
            (act1): SwishMe()
            (conv_dw): Conv2d(480, 480, kernel_size=(3, 3), stride=(1, 1), padding=(1, 1), groups=480, bias=False)
            (bn2): SyncBatchNorm(480, eps=1e-05, momentum=0.1, affine=True, track_running_stats=True)
            (act2): SwishMe()
            (se): SqueezeExcite(
              (conv_reduce): Conv2d(480, 20, kernel_size=(1, 1), stride=(1, 1))
              (act1): SwishMe()
              (conv_expand): Conv2d(20, 480, kernel_size=(1, 1), stride=(1, 1))
              (gate): Sigmoid()
            )
            (conv_pwl): Conv2d(480, 80, kernel_size=(1, 1), stride=(1, 1), bias=False)
            (bn3): SyncBatchNorm(80, eps=1e-05, momentum=0.1, affine=True, track_running_stats=True)
          )
          (3): InvertedResidual(
            (conv_pw): Conv2d(80, 480, kernel_size=(1, 1), stride=(1, 1), bias=False)
            (bn1): SyncBatchNorm(480, eps=1e-05, momentum=0.1, affine=True, track_running_stats=True)
            (act1): SwishMe()
            (conv_dw): Conv2d(480, 480, kernel_size=(3, 3), stride=(1, 1), padding=(1, 1), groups=480, bias=False)
            (bn2): SyncBatchNorm(480, eps=1e-05, momentum=0.1, affine=True, track_running_stats=True)
            (act2): SwishMe()
            (se): SqueezeExcite(
              (conv_reduce): Conv2d(480, 20, kernel_size=(1, 1), stride=(1, 1))
              (act1): SwishMe()
              (conv_expand): Conv2d(20, 480, kernel_size=(1, 1), stride=(1, 1))
              (gate): Sigmoid()
            )
            (conv_pwl): Conv2d(480, 80, kernel_size=(1, 1), stride=(1, 1), bias=False)
            (bn3): SyncBatchNorm(80, eps=1e-05, momentum=0.1, affine=True, track_running_stats=True)
          )
        )
        (4): Sequential(
          (0): InvertedResidual(
            (conv_pw): Conv2d(80, 480, kernel_size=(1, 1), stride=(1, 1), bias=False)
            (bn1): SyncBatchNorm(480, eps=1e-05, momentum=0.1, affine=True, track_running_stats=True)
            (act1): SwishMe()
            (conv_dw): Conv2d(480, 480, kernel_size=(5, 5), stride=(1, 1), padding=(2, 2), groups=480, bias=False)
            (bn2): SyncBatchNorm(480, eps=1e-05, momentum=0.1, affine=True, track_running_stats=True)
            (act2): SwishMe()
            (se): SqueezeExcite(
              (conv_reduce): Conv2d(480, 20, kernel_size=(1, 1), stride=(1, 1))
              (act1): SwishMe()
              (conv_expand): Conv2d(20, 480, kernel_size=(1, 1), stride=(1, 1))
              (gate): Sigmoid()
            )
            (conv_pwl): Conv2d(480, 112, kernel_size=(1, 1), stride=(1, 1), bias=False)
            (bn3): SyncBatchNorm(112, eps=1e-05, momentum=0.1, affine=True, track_running_stats=True)
          )
          (1): InvertedResidual(
            (conv_pw): Conv2d(112, 672, kernel_size=(1, 1), stride=(1, 1), bias=False)
            (bn1): SyncBatchNorm(672, eps=1e-05, momentum=0.1, affine=True, track_running_stats=True)
            (act1): SwishMe()
            (conv_dw): Conv2d(672, 672, kernel_size=(5, 5), stride=(1, 1), padding=(2, 2), groups=672, bias=False)
            (bn2): SyncBatchNorm(672, eps=1e-05, momentum=0.1, affine=True, track_running_stats=True)
            (act2): SwishMe()
            (se): SqueezeExcite(
              (conv_reduce): Conv2d(672, 28, kernel_size=(1, 1), stride=(1, 1))
              (act1): SwishMe()
              (conv_expand): Conv2d(28, 672, kernel_size=(1, 1), stride=(1, 1))
              (gate): Sigmoid()
            )
            (conv_pwl): Conv2d(672, 112, kernel_size=(1, 1), stride=(1, 1), bias=False)
            (bn3): SyncBatchNorm(112, eps=1e-05, momentum=0.1, affine=True, track_running_stats=True)
          )
          (2): InvertedResidual(
            (conv_pw): Conv2d(112, 672, kernel_size=(1, 1), stride=(1, 1), bias=False)
            (bn1): SyncBatchNorm(672, eps=1e-05, momentum=0.1, affine=True, track_running_stats=True)
            (act1): SwishMe()
            (conv_dw): Conv2d(672, 672, kernel_size=(5, 5), stride=(1, 1), padding=(2, 2), groups=672, bias=False)
            (bn2): SyncBatchNorm(672, eps=1e-05, momentum=0.1, affine=True, track_running_stats=True)
            (act2): SwishMe()
            (se): SqueezeExcite(
              (conv_reduce): Conv2d(672, 28, kernel_size=(1, 1), stride=(1, 1))
              (act1): SwishMe()
              (conv_expand): Conv2d(28, 672, kernel_size=(1, 1), stride=(1, 1))
              (gate): Sigmoid()
            )
            (conv_pwl): Conv2d(672, 112, kernel_size=(1, 1), stride=(1, 1), bias=False)
            (bn3): SyncBatchNorm(112, eps=1e-05, momentum=0.1, affine=True, track_running_stats=True)
          )
          (3): InvertedResidual(
            (conv_pw): Conv2d(112, 672, kernel_size=(1, 1), stride=(1, 1), bias=False)
            (bn1): SyncBatchNorm(672, eps=1e-05, momentum=0.1, affine=True, track_running_stats=True)
            (act1): SwishMe()
            (conv_dw): Conv2d(672, 672, kernel_size=(5, 5), stride=(1, 1), padding=(2, 2), groups=672, bias=False)
            (bn2): SyncBatchNorm(672, eps=1e-05, momentum=0.1, affine=True, track_running_stats=True)
            (act2): SwishMe()
            (se): SqueezeExcite(
              (conv_reduce): Conv2d(672, 28, kernel_size=(1, 1), stride=(1, 1))
              (act1): SwishMe()
              (conv_expand): Conv2d(28, 672, kernel_size=(1, 1), stride=(1, 1))
              (gate): Sigmoid()
            )
            (conv_pwl): Conv2d(672, 112, kernel_size=(1, 1), stride=(1, 1), bias=False)
            (bn3): SyncBatchNorm(112, eps=1e-05, momentum=0.1, affine=True, track_running_stats=True)
          )
        )
        (5): Sequential(
          (0): InvertedResidual(
            (conv_pw): Conv2d(112, 672, kernel_size=(1, 1), stride=(1, 1), bias=False)
            (bn1): SyncBatchNorm(672, eps=1e-05, momentum=0.1, affine=True, track_running_stats=True)
            (act1): SwishMe()
            (conv_dw): Conv2d(672, 672, kernel_size=(5, 5), stride=(2, 2), padding=(2, 2), groups=672, bias=False)
            (bn2): SyncBatchNorm(672, eps=1e-05, momentum=0.1, affine=True, track_running_stats=True)
            (act2): SwishMe()
            (se): SqueezeExcite(
              (conv_reduce): Conv2d(672, 28, kernel_size=(1, 1), stride=(1, 1))
              (act1): SwishMe()
              (conv_expand): Conv2d(28, 672, kernel_size=(1, 1), stride=(1, 1))
              (gate): Sigmoid()
            )
            (conv_pwl): Conv2d(672, 192, kernel_size=(1, 1), stride=(1, 1), bias=False)
            (bn3): SyncBatchNorm(192, eps=1e-05, momentum=0.1, affine=True, track_running_stats=True)
          )
          (1): InvertedResidual(
            (conv_pw): Conv2d(192, 1152, kernel_size=(1, 1), stride=(1, 1), bias=False)
            (bn1): SyncBatchNorm(1152, eps=1e-05, momentum=0.1, affine=True, track_running_stats=True)
            (act1): SwishMe()
            (conv_dw): Conv2d(1152, 1152, kernel_size=(5, 5), stride=(1, 1), padding=(2, 2), groups=1152, bias=False)
            (bn2): SyncBatchNorm(1152, eps=1e-05, momentum=0.1, affine=True, track_running_stats=True)
            (act2): SwishMe()
            (se): SqueezeExcite(
              (conv_reduce): Conv2d(1152, 48, kernel_size=(1, 1), stride=(1, 1))
              (act1): SwishMe()
              (conv_expand): Conv2d(48, 1152, kernel_size=(1, 1), stride=(1, 1))
              (gate): Sigmoid()
            )
            (conv_pwl): Conv2d(1152, 192, kernel_size=(1, 1), stride=(1, 1), bias=False)
            (bn3): SyncBatchNorm(192, eps=1e-05, momentum=0.1, affine=True, track_running_stats=True)
          )
          (2): InvertedResidual(
            (conv_pw): Conv2d(192, 1152, kernel_size=(1, 1), stride=(1, 1), bias=False)
            (bn1): SyncBatchNorm(1152, eps=1e-05, momentum=0.1, affine=True, track_running_stats=True)
            (act1): SwishMe()
            (conv_dw): Conv2d(1152, 1152, kernel_size=(5, 5), stride=(1, 1), padding=(2, 2), groups=1152, bias=False)
            (bn2): SyncBatchNorm(1152, eps=1e-05, momentum=0.1, affine=True, track_running_stats=True)
            (act2): SwishMe()
            (se): SqueezeExcite(
              (conv_reduce): Conv2d(1152, 48, kernel_size=(1, 1), stride=(1, 1))
              (act1): SwishMe()
              (conv_expand): Conv2d(48, 1152, kernel_size=(1, 1), stride=(1, 1))
              (gate): Sigmoid()
            )
            (conv_pwl): Conv2d(1152, 192, kernel_size=(1, 1), stride=(1, 1), bias=False)
            (bn3): SyncBatchNorm(192, eps=1e-05, momentum=0.1, affine=True, track_running_stats=True)
          )
          (3): InvertedResidual(
            (conv_pw): Conv2d(192, 1152, kernel_size=(1, 1), stride=(1, 1), bias=False)
            (bn1): SyncBatchNorm(1152, eps=1e-05, momentum=0.1, affine=True, track_running_stats=True)
            (act1): SwishMe()
            (conv_dw): Conv2d(1152, 1152, kernel_size=(5, 5), stride=(1, 1), padding=(2, 2), groups=1152, bias=False)
            (bn2): SyncBatchNorm(1152, eps=1e-05, momentum=0.1, affine=True, track_running_stats=True)
            (act2): SwishMe()
            (se): SqueezeExcite(
              (conv_reduce): Conv2d(1152, 48, kernel_size=(1, 1), stride=(1, 1))
              (act1): SwishMe()
              (conv_expand): Conv2d(48, 1152, kernel_size=(1, 1), stride=(1, 1))
              (gate): Sigmoid()
            )
            (conv_pwl): Conv2d(1152, 192, kernel_size=(1, 1), stride=(1, 1), bias=False)
            (bn3): SyncBatchNorm(192, eps=1e-05, momentum=0.1, affine=True, track_running_stats=True)
          )
          (4): InvertedResidual(
            (conv_pw): Conv2d(192, 1152, kernel_size=(1, 1), stride=(1, 1), bias=False)
            (bn1): SyncBatchNorm(1152, eps=1e-05, momentum=0.1, affine=True, track_running_stats=True)
            (act1): SwishMe()
            (conv_dw): Conv2d(1152, 1152, kernel_size=(5, 5), stride=(1, 1), padding=(2, 2), groups=1152, bias=False)
            (bn2): SyncBatchNorm(1152, eps=1e-05, momentum=0.1, affine=True, track_running_stats=True)
            (act2): SwishMe()
            (se): SqueezeExcite(
              (conv_reduce): Conv2d(1152, 48, kernel_size=(1, 1), stride=(1, 1))
              (act1): SwishMe()
              (conv_expand): Conv2d(48, 1152, kernel_size=(1, 1), stride=(1, 1))
              (gate): Sigmoid()
            )
            (conv_pwl): Conv2d(1152, 192, kernel_size=(1, 1), stride=(1, 1), bias=False)
            (bn3): SyncBatchNorm(192, eps=1e-05, momentum=0.1, affine=True, track_running_stats=True)
          )
        )
        (6): Sequential(
          (0): InvertedResidual(
            (conv_pw): Conv2d(192, 1152, kernel_size=(1, 1), stride=(1, 1), bias=False)
            (bn1): SyncBatchNorm(1152, eps=1e-05, momentum=0.1, affine=True, track_running_stats=True)
            (act1): SwishMe()
            (conv_dw): Conv2d(1152, 1152, kernel_size=(3, 3), stride=(1, 1), padding=(1, 1), groups=1152, bias=False)
            (bn2): SyncBatchNorm(1152, eps=1e-05, momentum=0.1, affine=True, track_running_stats=True)
            (act2): SwishMe()
            (se): SqueezeExcite(
              (conv_reduce): Conv2d(1152, 48, kernel_size=(1, 1), stride=(1, 1))
              (act1): SwishMe()
              (conv_expand): Conv2d(48, 1152, kernel_size=(1, 1), stride=(1, 1))
              (gate): Sigmoid()
            )
            (conv_pwl): Conv2d(1152, 320, kernel_size=(1, 1), stride=(1, 1), bias=False)
            (bn3): SyncBatchNorm(320, eps=1e-05, momentum=0.1, affine=True, track_running_stats=True)
          )
          (1): InvertedResidual(
            (conv_pw): Conv2d(320, 1920, kernel_size=(1, 1), stride=(1, 1), bias=False)
            (bn1): SyncBatchNorm(1920, eps=1e-05, momentum=0.1, affine=True, track_running_stats=True)
            (act1): SwishMe()
            (conv_dw): Conv2d(1920, 1920, kernel_size=(3, 3), stride=(1, 1), padding=(1, 1), groups=1920, bias=False)
            (bn2): SyncBatchNorm(1920, eps=1e-05, momentum=0.1, affine=True, track_running_stats=True)
            (act2): SwishMe()
            (se): SqueezeExcite(
              (conv_reduce): Conv2d(1920, 80, kernel_size=(1, 1), stride=(1, 1))
              (act1): SwishMe()
              (conv_expand): Conv2d(80, 1920, kernel_size=(1, 1), stride=(1, 1))
              (gate): Sigmoid()
            )
            (conv_pwl): Conv2d(1920, 320, kernel_size=(1, 1), stride=(1, 1), bias=False)
            (bn3): SyncBatchNorm(320, eps=1e-05, momentum=0.1, affine=True, track_running_stats=True)
          )
        )
      )
    )
    (ffm): FeatureFusionModule(
      (conv1): ConvModule(
        (conv): Conv2d(256, 256, kernel_size=(1, 1), stride=(1, 1), bias=False)
        (bn): SyncBatchNorm(256, eps=1e-05, momentum=0.1, affine=True, track_running_stats=True)
        (activate): ReLU(inplace=True)
      )
      (gap): AdaptiveAvgPool2d(output_size=(1, 1))
      (conv_atten): Sequential(
        (0): ConvModule(
          (conv): Conv2d(256, 256, kernel_size=(1, 1), stride=(1, 1), bias=False)
          (bn): SyncBatchNorm(256, eps=1e-05, momentum=0.1, affine=True, track_running_stats=True)
          (activate): ReLU(inplace=True)
        )
        (1): Sigmoid()
      )
    )
    (arm16): AttentionRefinementModule(
      (conv_layer): ConvModule(
        (conv): Conv2d(112, 128, kernel_size=(3, 3), stride=(1, 1), padding=(1, 1), bias=False)
        (bn): SyncBatchNorm(128, eps=1e-05, momentum=0.1, affine=True, track_running_stats=True)
        (activate): ReLU(inplace=True)
      )
      (atten_conv_layer): Sequential(
        (0): AdaptiveAvgPool2d(output_size=(1, 1))
        (1): ConvModule(
          (conv): Conv2d(128, 128, kernel_size=(1, 1), stride=(1, 1), bias=False)
          (bn): SyncBatchNorm(128, eps=1e-05, momentum=0.1, affine=True, track_running_stats=True)
        )
        (2): Sigmoid()
      )
    )
    (arm32): AttentionRefinementModule(
      (conv_layer): ConvModule(
        (conv): Conv2d(320, 128, kernel_size=(3, 3), stride=(1, 1), padding=(1, 1), bias=False)
        (bn): SyncBatchNorm(128, eps=1e-05, momentum=0.1, affine=True, track_running_stats=True)
        (activate): ReLU(inplace=True)
      )
      (atten_conv_layer): Sequential(
        (0): AdaptiveAvgPool2d(output_size=(1, 1))
        (1): ConvModule(
          (conv): Conv2d(128, 128, kernel_size=(1, 1), stride=(1, 1), bias=False)
          (bn): SyncBatchNorm(128, eps=1e-05, momentum=0.1, affine=True, track_running_stats=True)
        )
        (2): Sigmoid()
      )
    )
    (conv_head32): ConvModule(
      (conv): Conv2d(128, 128, kernel_size=(3, 3), stride=(1, 1), padding=(1, 1), bias=False)
      (bn): SyncBatchNorm(128, eps=1e-05, momentum=0.1, affine=True, track_running_stats=True)
      (activate): ReLU(inplace=True)
    )
    (conv_head16): ConvModule(
      (conv): Conv2d(128, 128, kernel_size=(3, 3), stride=(1, 1), padding=(1, 1), bias=False)
      (bn): SyncBatchNorm(128, eps=1e-05, momentum=0.1, affine=True, track_running_stats=True)
      (activate): ReLU(inplace=True)
    )
    (sp_0): ConvModule(
      (conv): Conv2d(19, 24, kernel_size=(3, 3), stride=(2, 2), padding=(1, 1), bias=False)
      (bn): SyncBatchNorm(24, eps=1e-05, momentum=0.1, affine=True, track_running_stats=True)
      (activate): ReLU(inplace=True)
    )
    (sp_1): ConvModule(
      (conv): Conv2d(24, 64, kernel_size=(3, 3), stride=(2, 2), padding=(1, 1), bias=False)
      (bn): SyncBatchNorm(64, eps=1e-05, momentum=0.1, affine=True, track_running_stats=True)
      (activate): ReLU(inplace=True)
    )
    (sp_2): ConvModule(
      (conv): Conv2d(64, 128, kernel_size=(1, 1), stride=(1, 1), bias=False)
      (bn): SyncBatchNorm(128, eps=1e-05, momentum=0.1, affine=True, track_running_stats=True)
      (activate): ReLU(inplace=True)
    )
    (SIM_0): SIM(
      (h2l_pool): AvgPool2d(kernel_size=(2, 2), stride=2, padding=0)
      (h2l_0): Conv2d(96, 24, kernel_size=(3, 3), stride=(1, 1), padding=(1, 1))
      (h2h_0): Conv2d(24, 24, kernel_size=(3, 3), stride=(1, 1), padding=(1, 1))
      (bnl_0): SyncBatchNorm(24, eps=1e-05, momentum=0.1, affine=True, track_running_stats=True)
      (bnh_0): SyncBatchNorm(24, eps=1e-05, momentum=0.1, affine=True, track_running_stats=True)
      (avg): AdaptiveAvgPool2d(output_size=(1, 1))
      (l2l_p1): Conv2d(24, 24, kernel_size=(1, 1), stride=(1, 1))
      (l2l_p2): Conv2d(24, 24, kernel_size=(1, 1), stride=(1, 1))
      (l2l_bn): SyncBatchNorm(24, eps=1e-05, momentum=0.1, affine=True, track_running_stats=True)
      (h2h_1): Conv2d(24, 24, kernel_size=(3, 3), stride=(1, 1), padding=(1, 1))
      (h2l_1): Conv2d(24, 24, kernel_size=(3, 3), stride=(1, 1), padding=(1, 1))
      (l2h_1): Conv2d(24, 24, kernel_size=(3, 3), stride=(1, 1), padding=(1, 1))
      (l2l_1): Conv2d(24, 24, kernel_size=(3, 3), stride=(1, 1), padding=(1, 1))
      (bnl_1): SyncBatchNorm(24, eps=1e-05, momentum=0.1, affine=True, track_running_stats=True)
      (bnh_1): SyncBatchNorm(24, eps=1e-05, momentum=0.1, affine=True, track_running_stats=True)
      (h2h_2): Conv2d(24, 24, kernel_size=(3, 3), stride=(1, 1), padding=(1, 1))
      (l2h_2): Conv2d(24, 24, kernel_size=(3, 3), stride=(1, 1), padding=(1, 1))
      (bnh_2): SyncBatchNorm(24, eps=1e-05, momentum=0.1, affine=True, track_running_stats=True)
      (relu): ReLU(inplace=True)
    )
    (SIM_1): SIM(
      (h2l_pool): AvgPool2d(kernel_size=(2, 2), stride=2, padding=0)
      (h2l_0): Conv2d(160, 32, kernel_size=(3, 3), stride=(1, 1), padding=(1, 1))
      (h2h_0): Conv2d(40, 32, kernel_size=(3, 3), stride=(1, 1), padding=(1, 1))
      (bnl_0): SyncBatchNorm(32, eps=1e-05, momentum=0.1, affine=True, track_running_stats=True)
      (bnh_0): SyncBatchNorm(32, eps=1e-05, momentum=0.1, affine=True, track_running_stats=True)
      (avg): AdaptiveAvgPool2d(output_size=(1, 1))
      (l2l_p1): Conv2d(32, 32, kernel_size=(1, 1), stride=(1, 1))
      (l2l_p2): Conv2d(40, 32, kernel_size=(1, 1), stride=(1, 1))
      (l2l_bn): SyncBatchNorm(32, eps=1e-05, momentum=0.1, affine=True, track_running_stats=True)
      (h2h_1): Conv2d(32, 32, kernel_size=(3, 3), stride=(1, 1), padding=(1, 1))
      (h2l_1): Conv2d(32, 32, kernel_size=(3, 3), stride=(1, 1), padding=(1, 1))
      (l2h_1): Conv2d(32, 32, kernel_size=(3, 3), stride=(1, 1), padding=(1, 1))
      (l2l_1): Conv2d(32, 32, kernel_size=(3, 3), stride=(1, 1), padding=(1, 1))
      (bnl_1): SyncBatchNorm(32, eps=1e-05, momentum=0.1, affine=True, track_running_stats=True)
      (bnh_1): SyncBatchNorm(32, eps=1e-05, momentum=0.1, affine=True, track_running_stats=True)
      (h2h_2): Conv2d(32, 40, kernel_size=(3, 3), stride=(1, 1), padding=(1, 1))
      (l2h_2): Conv2d(32, 40, kernel_size=(3, 3), stride=(1, 1), padding=(1, 1))
      (bnh_2): SyncBatchNorm(40, eps=1e-05, momentum=0.1, affine=True, track_running_stats=True)
      (relu): ReLU(inplace=True)
    )
    (SIM_2): SIM(
      (h2l_pool): AvgPool2d(kernel_size=(2, 2), stride=2, padding=0)
      (h2l_0): Conv2d(448, 32, kernel_size=(3, 3), stride=(1, 1), padding=(1, 1))
      (h2h_0): Conv2d(112, 32, kernel_size=(3, 3), stride=(1, 1), padding=(1, 1))
      (bnl_0): SyncBatchNorm(32, eps=1e-05, momentum=0.1, affine=True, track_running_stats=True)
      (bnh_0): SyncBatchNorm(32, eps=1e-05, momentum=0.1, affine=True, track_running_stats=True)
      (avg): AdaptiveAvgPool2d(output_size=(1, 1))
      (l2l_p1): Conv2d(32, 32, kernel_size=(1, 1), stride=(1, 1))
      (l2l_p2): Conv2d(112, 32, kernel_size=(1, 1), stride=(1, 1))
      (l2l_bn): SyncBatchNorm(32, eps=1e-05, momentum=0.1, affine=True, track_running_stats=True)
      (h2h_1): Conv2d(32, 32, kernel_size=(3, 3), stride=(1, 1), padding=(1, 1))
      (h2l_1): Conv2d(32, 32, kernel_size=(3, 3), stride=(1, 1), padding=(1, 1))
      (l2h_1): Conv2d(32, 32, kernel_size=(3, 3), stride=(1, 1), padding=(1, 1))
      (l2l_1): Conv2d(32, 32, kernel_size=(3, 3), stride=(1, 1), padding=(1, 1))
      (bnl_1): SyncBatchNorm(32, eps=1e-05, momentum=0.1, affine=True, track_running_stats=True)
      (bnh_1): SyncBatchNorm(32, eps=1e-05, momentum=0.1, affine=True, track_running_stats=True)
      (h2h_2): Conv2d(32, 112, kernel_size=(3, 3), stride=(1, 1), padding=(1, 1))
      (l2h_2): Conv2d(32, 112, kernel_size=(3, 3), stride=(1, 1), padding=(1, 1))
      (bnh_2): SyncBatchNorm(112, eps=1e-05, momentum=0.1, affine=True, track_running_stats=True)
      (relu): ReLU(inplace=True)
    )
    (SIM_3): SIM(
      (h2l_pool): AvgPool2d(kernel_size=(2, 2), stride=2, padding=0)
      (h2l_0): Conv2d(1280, 32, kernel_size=(3, 3), stride=(1, 1), padding=(1, 1))
      (h2h_0): Conv2d(320, 32, kernel_size=(3, 3), stride=(1, 1), padding=(1, 1))
      (bnl_0): SyncBatchNorm(32, eps=1e-05, momentum=0.1, affine=True, track_running_stats=True)
      (bnh_0): SyncBatchNorm(32, eps=1e-05, momentum=0.1, affine=True, track_running_stats=True)
      (avg): AdaptiveAvgPool2d(output_size=(1, 1))
      (l2l_p1): Conv2d(32, 32, kernel_size=(1, 1), stride=(1, 1))
      (l2l_p2): Conv2d(320, 32, kernel_size=(1, 1), stride=(1, 1))
      (l2l_bn): SyncBatchNorm(32, eps=1e-05, momentum=0.1, affine=True, track_running_stats=True)
      (h2h_1): Conv2d(32, 32, kernel_size=(3, 3), stride=(1, 1), padding=(1, 1))
      (h2l_1): Conv2d(32, 32, kernel_size=(3, 3), stride=(1, 1), padding=(1, 1))
      (l2h_1): Conv2d(32, 32, kernel_size=(3, 3), stride=(1, 1), padding=(1, 1))
      (l2l_1): Conv2d(32, 32, kernel_size=(3, 3), stride=(1, 1), padding=(1, 1))
      (bnl_1): SyncBatchNorm(32, eps=1e-05, momentum=0.1, affine=True, track_running_stats=True)
      (bnh_1): SyncBatchNorm(32, eps=1e-05, momentum=0.1, affine=True, track_running_stats=True)
      (h2h_2): Conv2d(32, 320, kernel_size=(3, 3), stride=(1, 1), padding=(1, 1))
      (l2h_2): Conv2d(32, 320, kernel_size=(3, 3), stride=(1, 1), padding=(1, 1))
      (bnh_2): SyncBatchNorm(320, eps=1e-05, momentum=0.1, affine=True, track_running_stats=True)
      (relu): ReLU(inplace=True)
    )
    (cp_1): ConvModule(
      (conv): Conv2d(24, 24, kernel_size=(3, 3), stride=(1, 1), padding=(1, 1), bias=False)
      (bn): SyncBatchNorm(24, eps=1e-05, momentum=0.1, affine=True, track_running_stats=True)
      (activate): ReLU(inplace=True)
    )
    (cp_2): ConvModule(
      (conv): Conv2d(40, 64, kernel_size=(3, 3), stride=(1, 1), padding=(1, 1), bias=False)
      (bn): SyncBatchNorm(64, eps=1e-05, momentum=0.1, affine=True, track_running_stats=True)
      (activate): ReLU(inplace=True)
    )
    (sample1): InputProjectionA(
      (pool): ModuleList(
        (0): AvgPool2d(kernel_size=2, stride=2, padding=0)
      )
    )
  )
  (decode_head): FCNHead(
    input_transform=None, ignore_index=255, align_corners=False
    (loss_decode): CrossEntropyLoss()
    (conv_seg): Conv2d(256, 19, kernel_size=(1, 1), stride=(1, 1))
    (dropout): Dropout2d(p=0.1, inplace=False)
    (convs): Sequential(
      (0): ConvModule(
        (conv): Conv2d(256, 256, kernel_size=(3, 3), stride=(1, 1), padding=(1, 1), bias=False)
        (bn): SyncBatchNorm(256, eps=1e-05, momentum=0.1, affine=True, track_running_stats=True)
        (activate): ReLU(inplace=True)
      )
    )
  )
  init_cfg={'type': 'Normal', 'std': 0.01, 'override': {'name': 'conv_seg'}}
  (auxiliary_head): ModuleList(
    (0): FCNHead(
      input_transform=None, ignore_index=255, align_corners=False
      (loss_decode): CrossEntropyLoss()
      (conv_seg): Conv2d(64, 19, kernel_size=(1, 1), stride=(1, 1))
      (dropout): Dropout2d(p=0.1, inplace=False)
      (convs): Sequential(
        (0): ConvModule(
          (conv): Conv2d(128, 64, kernel_size=(3, 3), stride=(1, 1), padding=(1, 1), bias=False)
          (bn): SyncBatchNorm(64, eps=1e-05, momentum=0.1, affine=True, track_running_stats=True)
          (activate): ReLU(inplace=True)
        )
      )
    )
    init_cfg={'type': 'Normal', 'std': 0.01, 'override': {'name': 'conv_seg'}}
    (1): FCNHead(
      input_transform=None, ignore_index=255, align_corners=False
      (loss_decode): CrossEntropyLoss()
      (conv_seg): Conv2d(64, 19, kernel_size=(1, 1), stride=(1, 1))
      (dropout): Dropout2d(p=0.1, inplace=False)
      (convs): Sequential(
        (0): ConvModule(
          (conv): Conv2d(128, 64, kernel_size=(3, 3), stride=(1, 1), padding=(1, 1), bias=False)
          (bn): SyncBatchNorm(64, eps=1e-05, momentum=0.1, affine=True, track_running_stats=True)
          (activate): ReLU(inplace=True)
        )
      )
    )
    init_cfg={'type': 'Normal', 'std': 0.01, 'override': {'name': 'conv_seg'}}
  )
)
2021-12-11 10:28:37,494 - mmseg - INFO - Loaded 2975 images
2021-12-11 10:28:38,849 - mmseg - INFO - Loaded 500 images
…
